…
/s]Map: 100%|██████████| 7532/7532 [00:02<00:00, 3670.75 examples/s]
Some weights of LlamaForSequenceClassification were not initialized from the model checkpoint at ./model/models--llama-3.2-1b/ and are newly initialized: ['score.weight']
You should probably TRAIN this model on a down-stream task to be able to use it for predictions and inference.
trainable params: 1,703,936 || all params: 1,237,559,296 || trainable%: 0.1377
the model architecture is 
PeftModelForCausalLM(
  (base_model): LoraModel(
    (model): LlamaForSequenceClassification(
      (model): LlamaModel(
        (embed_tokens): Embedding(128256, 2048)
        (layers): ModuleList(
          (0-15): 16 x LlamaDecoderLayer(
            (self_attn): LlamaAttention(
              (q_proj): lora.Linear(
                (base_layer): Linear(in_features=2048, out_features=2048, bias=False)
                (lora_dropout): ModuleDict(
                  (default): Dropout(p=0.05, inplace=False)
                )
                (lora_A): ModuleDict(
                  (default): Linear(in_features=2048, out_features=16, bias=False)
                )
                (lora_B): ModuleDict(
                  (default): Linear(in_features=16, out_features=2048, bias=False)
                )
                (lora_embedding_A): ParameterDict()
                (lora_embedding_B): ParameterDict()
                (lora_magnitude_vector): ModuleDict()
              )
              (k_proj): Linear(in_features=2048, out_features=512, bias=False)
              (v_proj): lora.Linear(
                (base_layer): Linear(in_features=2048, out_features=512, bias=False)
                (lora_dropout): ModuleDict(
                  (default): Dropout(p=0.05, inplace=False)
                )
                (lora_A): ModuleDict(
                  (default): Linear(in_features=2048, out_features=16, bias=False)
                )
                (lora_B): ModuleDict(
                  (default): Linear(in_features=16, out_features=512, bias=False)
                )
                (lora_embedding_A): ParameterDict()
                (lora_embedding_B): ParameterDict()
                (lora_magnitude_vector): ModuleDict()
              )
              (o_proj): Linear(in_features=2048, out_features=2048, bias=False)
            )
            (mlp): LlamaMLP(
              (gate_proj): Linear(in_features=2048, out_features=8192, bias=False)
              (up_proj): Linear(in_features=2048, out_features=8192, bias=False)
              (down_proj): Linear(in_features=8192, out_features=2048, bias=False)
              (act_fn): SiLU()
            )
            (input_layernorm): LlamaRMSNorm((2048,), eps=1e-05)
            (post_attention_layernorm): LlamaRMSNorm((2048,), eps=1e-05)
          )
        )
        (norm): LlamaRMSNorm((2048,), eps=1e-05)
        (rotary_emb): LlamaRotaryEmbedding()
      )
      (score): Linear(in_features=2048, out_features=20, bias=False)
    )
  )
)
the number of packet is  152
ROUND:0
CLIENT:85
/home/suxiaoxin/Paper/Fed_LLM/fed_trainer.py:350: FutureWarning: `tokenizer` is deprecated and will be removed in version 5.0.0 for `Trainer.__init__`. Use `processing_class` instead.
  trainer = Trainer(
No label_names provided for model class `PeftModelForCausalLM`. Since `PeftModel` hides base models input arguments, if label_names is not given, label_names can't be set automatically within `Trainer`. Note that empty label_names list will be used instead.
…
