…
Some weights of DistilBertForSequenceClassification were not initialized from the model checkpoint at ./model/models--distilbert-base-multilingual-cased/ and are newly initialized: ['classifier.bias', 'classifier.weight', 'pre_classifier.bias', 'pre_classifier.weight']
You should probably TRAIN this model on a down-stream task to be able to use it for predictions and inference.
trainable params: 589,824 || all params: 135,929,876 || trainable%: 0.4339
PeftModelForCausalLM(
  (base_model): LoraModel(
    (model): DistilBertForSequenceClassification(
      (distilbert): DistilBertModel(
        (embeddings): Embeddings(
          (word_embeddings): Embedding(119547, 768, padding_idx=0)
          (position_embeddings): Embedding(512, 768)
          (LayerNorm): LayerNorm((768,), eps=1e-12, elementwise_affine=True)
          (dropout): Dropout(p=0.1, inplace=False)
        )
        (transformer): Transformer(
          (layer): ModuleList(
            (0-5): 6 x TransformerBlock(
              (attention): DistilBertSdpaAttention(
                (dropout): Dropout(p=0.1, inplace=False)
                (q_lin): lora.Linear(
                  (base_layer): Linear(in_features=768, out_features=768, bias=True)
                  (lora_dropout): ModuleDict(
                    (default): Dropout(p=0.05, inplace=False)
                  )
                  (lora_A): ModuleDict(
                    (default): Linear(in_features=768, out_features=32, bias=False)
                  )
                  (lora_B): ModuleDict(
                    (default): Linear(in_features=32, out_features=768, bias=False)
                  )
                  (lora_embedding_A): ParameterDict()
                  (lora_embedding_B): ParameterDict()
                  (lora_magnitude_vector): ModuleDict()
                )
                (k_lin): Linear(in_features=768, out_features=768, bias=True)
                (v_lin): lora.Linear(
                  (base_layer): Linear(in_features=768, out_features=768, bias=True)
                  (lora_dropout): ModuleDict(
                    (default): Dropout(p=0.05, inplace=False)
                  )
                  (lora_A): ModuleDict(
                    (default): Linear(in_features=768, out_features=32, bias=False)
                  )
                  (lora_B): ModuleDict(
                    (default): Linear(in_features=32, out_features=768, bias=False)
                  )
                  (lora_embedding_A): ParameterDict()
                  (lora_embedding_B): ParameterDict()
                  (lora_magnitude_vector): ModuleDict()
                )
                (out_lin): Linear(in_features=768, out_features=768, bias=True)
              )
              (sa_layer_norm): LayerNorm((768,), eps=1e-12, elementwise_affine=True)
              (ffn): FFN(
                (dropout): Dropout(p=0.1, inplace=False)
                (lin1): Linear(in_features=768, out_features=3072, bias=True)
                (lin2): Linear(in_features=3072, out_features=768, bias=True)
                (activation): GELUActivation()
              )
              (output_layer_norm): LayerNorm((768,), eps=1e-12, elementwise_affine=True)
            )
          )
        )
      )
      (pre_classifier): Linear(in_features=768, out_features=768, bias=True)
      (classifier): Linear(in_features=768, out_features=20, bias=True)
      (dropout): Dropout(p=0.2, inplace=False)
    )
  )
)
ROUND:0
CLIENT:22
/home/suxiaoxin/Paper/Fed_LLM/fed_trainer.py:315: FutureWarning: `tokenizer` is deprecated and will be removed in version 5.0.0 for `Trainer.__init__`. Use `processing_class` instead.
  trainer = Trainer(
No label_names provided for model class `PeftModelForCausalLM`. Since `PeftModel` hides base models input arguments, if label_names is not given, label_names can't be set automatically within `Trainer`. Note that empty label_names list will be used instead.
…
